notebooks/model_optimizing/models/dqn_model.onnx (onnx, 8992 bytes, 6 tensors)

fc1.weight f4 [24, 50]
0.024352893 0.038240388 -0.0396465 -0.007246226 0.043317467 -0.00429821 -0.0978636 0.08373703
0.057035968 -0.07116634 -0.13742952 0.10827041 0.12653019 0.13401116 -0.09922768 -0.04820261
-0.070947275 -0.10158775 -0.09750426 0.0142851025 0.108779326 -0.08083145 -0.05682274 -0.1254809
0.12529658 -0.08167304 -0.039161824 0.008262843 0.0699359 0.13393362 0.03336647 0.059566334
0.14006634 0.031043261 0.026464477 0.012790099 -0.043349214 -0.10058742 0.006160319 -0.12688962
-0.111164615 -0.017387599 -0.05488646 0.07204358 -0.08250839 -0.14031047 0.09153178 0.085285485
-0.087779194 0.10771546 0.07981226 0.086517274 -0.11543913 0.0055574626 0.012288168 0.01752825
0.11782627 -0.017839767 0.10600114 0.09806493 -0.016514167 -0.033692293 0.09789039 0.1334867
0.1284862 0.030049622 -0.12608194 -0.097890206 -0.02560509 0.1218072 -0.113533616 -0.007212773
0.037649676 -0.055688143 0.05242528 0.044372767 -0.047629714 0.038637444 0.021379828 -0.0708189
0.089693785 -0.06528876 0.010174364 0.0262274 -0.09090711 -0.06219832 -0.13723588 -0.04049176
-0.035643607 0.023859456 -0.13465162 -0.121606104 0.053807884 0.04934907 -0.06524589 -0.011793941
0.0753659 -0.07986842 0.13596593 0.061253935 -0.066299304 -0.046954185 -0.089407325 0.07230778
-0.1274448 -0.04556247 0.08155754 -0.018051766 -0.07360865 0.048795804 -0.040377304 -0.05295121
0.11204441 0.01863873 0.032539263 0.06921406 -0.017133132 0.056397393 -0.08852971 0.1321895
-0.00375548 0.028386474 0.13496853 0.112489685 0.077282205 0.12857045 0.104751155 0.06169164
0.10932143 0.017230913 0.081076324 -0.0016271174 -0.13258839 -0.069515415 0.0943663 -0.041762777
-0.013552636 0.0063418895 -0.043513 0.08983973 -0.06076195 -0.040190913 0.0806046 -0.06850136
0.03498806 -0.11945908 -0.013113573 -0.079413936 -0.03886818 0.010715127 0.022135437 0.045758247
-0.0065918416 -0.06685362 0.08998051 0.10110919 0.08039215 -0.011885688 -0.01565206 0.13712959
-0.10237831 -0.09337117 -0.10802302 -0.0960723 -0.09007245 -0.0020668507 -0.12343578 -0.13170981
-0.06126011 -0.02677837 0.13019888 0.10896514 -0.05367656 0.12617283 0.06541683 0.03656116
-0.09842907 0.04057291 0.08754209 0.0055452734 -0.016110837 -0.05122572 0.07201575 -0.05878769
0.012772188 0.011701405 0.0025137365 0.040180326 -0.12448114 0.01501745 0.12938677 0.07107058
-0.041753702 -0.108769625 -0.025873989 -0.1059984 0.09290108 0.077625155 -0.008964434 0.05899705
-0.0062119067 0.0085179955 0.13311402 -0.06967171 0.13611375 -0.09749755 0.035163984 0.045709148
-0.04471019 -0.11930797 -0.016284704 0.13197763 -0.11032171 -0.065465406 0.05020711 -0.07445394
0.10506742 0.049890354 0.03579785 -0.1136668 0.11308546 -0.061139755 0.1080606 0.11857955
0.11439349 0.03929314 -0.11936028 0.0482333 -0.10631693 -0.09909415 -0.118026555 0.08653368
-0.11889458 0.07469593 -0.033210017 0.13564847 -0.07855094 0.053909227 -0.13976653 0.075956
0.008349597 0.035377964 -0.07975504 0.12507288 -0.033521213 -0.0567479 -0.12541777 -0.12231115
0.067508444 -0.055707954 -0.10185737 -0.12226847 -0.10262374 -0.13176048 -0.09265965 0.13671114
00000000: b87f c73c f4a1 1c3d 5e64 22bd c071 edbb
00000010: a86d 313d 00d8 8cbb b66c c8bd 527e ab3d
00000020: 8c9e 693d a8bf 91bd 53ba 0cbe e0bc dd3d
00000030: 2191 013e 393a 093e e237 cbbd 1a70 45bd
00000040: ce4c 91bd 3d0d d0bd 50b0 c7bd 100c 6a3c
00000050: b2c7 de3d f68a a5bd f6be 68bd 117e 00be
00000060: bf4d 003e 3244 a7bd 2668 20bd e060 073c
00000070: 8e3a 8f3d e525 093e 48ab 083d d4fb 733d
00000080: 8d6d 0f3e 704e fe3c 08cc d83c 908d 513c
00000090: f28e 31bd c700 cebd 80dc c93b 5aef 01be
000000a0: 46aa e3bd 7070 8ebc a0d0 60bd 968b 933d
000000b0: 29fa a8bd 8cad 0fbe 0475 bb3d 28aa ae3d
000000c0: 94c5 b3bd ec99 dc3d 9c74 a33d f82f b13d
000000d0: 5a6b ecbd 601b b63b 5054 493c 6897 8f3c
000000e0: e64e f13d b424 92bc 2017 d93d 44d6 c83d
000000f0: b848 87bc ee00 0abd c27a c83d bdb0 083e
00000100: e391 033e a02a f63c a01b 01be a97a c8bd
00000110: c4c1 d1bc 0e76 f93d 5084 e8bd 2059 ecbb
00000120: 8c36 1a3d 4019 64bd e4bb 563d 38c0 353d
00000130: 6017 43bd 4c42 1e3d c024 af3c 8009 91bd
00000140: 60b1 b73d 1db6 85bd 60b2 263c d8da d63c
00000150: 822d babd aac3 7ebd 9087 0cbe b0da 25bd
00000160: 08ff 11bd e874 c33c 1de2 09be 9f0c f9bd
00000170: a865 5c3d 4022 4a3d a39f 85bd 603b 41bc
00000180: 7059 9a3d 0e92 a3bd a73a 0b3e 68e5 7a3d
00000190: eec7 87bd 0853 40bd 301b b7bd 1a16 943d
000001a0: e480 02be b69f 3abd a407 a73d 4ce1 93bc
000001b0: 22c0 96bd 1cde 473d ac62 25bd 5ee3 58bd
000001c0: 8a77 e53d 40b0 983c e447 053d 1ac0 8d3d
000001d0: c85a 8cbc f400 673d 114f b5bd af5c 073e
000001e0: 801e 76bb c08a e83c 3135 0a3e fe60 e63d
000001f0: 2246 9e3d f9a7 033e c687 d63d 60b0 7c3d
00000200: eae3 df3d d827 8d3c 580b a63d 0045 d5ba
00000210: 40c5 07be 195e 8ebd 1e43 c13d 720f 2bbd
00000220: e00b 5ebc a0cf cf3b b03a 32bd e4fd b73d
00000230: 86e1 78bd 3a9f 24bd 0614 a53d 714a 8cbd
00000240: a44f 0f3d f6a6 f4bd 50da 56bc c6a3 a2bd
00000250: 3e34 1fbd 808e 2f3c 6055 b53c 006d 3b3d
00000260: 6000 d8bb 8dea 88bd b447 b83d 5612 cf3d
00000270: a4a4 a43d 30bc 42bc c038 80bc b36b 0c3e
00000280: b8ab d1bd 6239 bfbd 2c3b ddbd 8ec1 c4bd
00000290: e877 b8bd 0074 07bb e6cb fcbd f0de 06be
000002a0: e2eb 7abd 505e dbbc db52 053e 1e29 df3d
000002b0: f4db 5bbd 7333 013e 42f9 853d 28c1 153d
000002c0: 2e95 c9bd c82f 263d 4449 b33d 20b5 b53b
000002d0: e0fa 83bc 10d2 51bd fe7c 933d 5ccb 70bd
000002e0: 7042 513c 40b7 3f3c 80bd 243b 2094 243d
000002f0: f8ef febd c00b 763c f77d 043e 748d 913d
00000300: ee05 2bbd 9cc2 debd b0f5 d3bc b015 d9bd
00000310: ec42 be3d f0f9 9e3d 90df 12bc e4a6 713d
00000320: 408d cbbb 108f 0b3c 0b4f 083e 0bb0 8ebd
00000330: 6761 0b3e ccac c7bd 1c08 103d 8439 3b3d
00000340: 0822 37bd bd57 f4bd 8067 85bc 2525 073e
00000350: 59f0 e1bd ba12 86bd f8a5 4d3d 4f7b 98bd
00000360: 962d d73d d459 4c3d c4a0 123d 24ca e8bd
00000370: 5a99 e73d ae6d 7abd e04e dd3d d6d9 f23d
00000380: 2247 ea3d d8f1 203d 2a73 f4bd 4890 453d
00000390: b1bc d9bd e0f1 cabd e8b7 f1bd 9238 b13d
000003a0: 007f f3bd 2efa 983d 3a07 08bd 6fe7 0a3e
000003b0: 51df a0bd eccf 5c3d f51e 0fbe d28e 9b3d
000003c0: c0cc 083c 7ce8 103d 9c56 a3bd 1b13 003e
000003d0: 8a4d 09bd 7c70 68bd 846d 00be 457e fabd
000003e0: de41 8a3d 062e 64bd 999a d0bd e467 fabd
000003f0: 652c d2bd 38ec 06be 58c4 bdbd 01fe 0b3e

fc1.bias f4 [24]
-0.1308099 -0.06895115 -0.045618556 -0.027964287 -0.019224003 0.024563238 -0.11339278 -0.09176791
0.11184229 0.13848732 -0.060551606 -0.06842533 0.10794638 -0.08991599 0.13948964 -0.08110421
0.10015808 -0.046205558 0.07012257 -0.13823073 -0.11810655 -0.04474873 -0.11233769 0.0097402185
00000000: 08f3 05be 4336 8dbd 86da 3abd 5c15 e5bc
00000010: a87b 9dbc d838 c93c 793a e8bd d0f0 bbbd
00000020: 920d e53d 9fcf 0d3e f604 78bd 9422 8cbd
00000030: fe12 dd3d e025 b8bd 5fd6 0e3e f719 a6bd
00000040: ae1f cd3d 0a42 3dbd 6c9c 8f3d 5b8c 0dbe
00000050: d9e1 f1bd 724a 37bd 4e11 e6bd 7095 1f3c

fc2.weight f4 [24, 24]
-0.09021505 -0.100426234 -0.16226867 -0.1551854 -0.19665861 -0.09044738 -0.0896673 -0.07909262
0.081339 -0.115266524 0.19721311 -0.1229671 -0.15723835 0.14308181 0.06363198 -0.11638597
0.06937027 -0.16663468 -0.062597156 0.15838113 -0.039096475 0.037463844 0.017044783 -0.132036
0.15328181 -0.0873489 -0.15866151 0.07514036 0.009655818 -0.13285312 -0.047967896 0.18198052
-0.13327134 0.0010355115 0.19608343 0.1692738 -0.15380178 0.066207916 -0.117861256 0.10974488
-0.16826251 0.034632117 -0.06593053 0.17027071 0.090188414 -0.15842682 0.1354745 -0.19317442
-0.010906607 0.13312441 0.15992925 -0.089521736 -0.19807108 0.095509976 0.11315891 -0.12826854
-0.20199797 0.0042096227 0.15294513 0.005444348 -0.04927501 0.10489604 -0.09823471 -0.055218145
-0.13972113 -0.104902595 -0.07957936 0.13622242 0.14465389 0.023220554 0.17748478 -0.12334454
-0.16885525 -0.037419617 -0.13757324 -0.15098727 -0.08465518 -0.06398147 0.14716578 0.056939065
0.023745134 0.0011250526 0.20236653 0.047225356 0.13513988 0.18903002 0.039783657 -0.019730687
-0.13327777 -0.13125078 -0.082838565 -0.04717259 0.06610295 0.01964672 0.14567664 -0.18415979
-0.13565704 -0.1295814 -0.019633964 0.20003596 0.20332026 0.11441374 0.11687422 0.06320408
0.034308642 0.08199614 -0.10469474 0.13460296 -0.19143632 -0.1802261 0.09013516 0.18500632
0.14845076 0.17125285 -0.080273695 0.19513541 -0.1325174 0.014532298 -0.07779643 -0.19848807
0.040464357 0.02811183 -0.12946409 0.0027908385 -0.10571862 -0.03827618 0.028181955 0.10281944
-0.08661656 0.16045469 0.13974082 0.0764862 -0.19933587 -0.062001407 -0.18879244 -0.066707864
-0.07333271 -0.06436363 0.11298317 0.040234223 0.14343995 -0.19087209 -0.18780762 -0.059909314
0.19967723 -0.09560871 0.0071567 -0.007609129 -0.06062758 0.09851426 0.19445023 0.19197777
0.112066925 0.06552634 -0.07121092 0.19102898 0.1630294 0.036697105 -0.20192815 -0.12718928
-0.11038751 0.202007 -0.028381959 -0.030909792 0.12987462 0.021720022 0.042365447 0.17310792
0.1533202 -0.064661056 -0.1017388 -0.15454325 -0.18344149 -0.18097949 0.021494552 0.03112121
-0.18458316 0.012907505 0.119755656 0.15733188 -0.1158534 -0.055735245 0.18803483 0.16278571
0.06855622 0.16610077 -0.056369096 -0.05774492 -0.11878284 -0.15753753 -0.13502002 0.11263156
0.070613176 -0.05367723 -0.1931156 0.06717819 0.099449694 -0.028691888 0.06417903 0.2037431
0.012301415 -0.19452123 0.013897717 0.16046491 -0.13984571 -0.19768767 -0.13340768 -0.049784184
0.13540992 -0.049059242 0.07345113 -0.17614941 -0.04111141 0.043564156 0.0022976398 -0.10359716
-0.17531994 0.1707915 -0.08024291 0.10989487 -0.18853267 0.14043939 0.18553203 -0.040391147
0.056150973 -0.1960019 -0.048853144 0.036248416 0.08772105 0.15356982 0.15672094 -0.071254164
-0.17767575 0.13747478 0.013890773 -0.15767318 0.06989381 0.010631308 -0.11303325 0.18582067
-0.19482698 -0.09858197 0.14985862 -0.15098983 -0.165108 0.19286302 -0.089694776 -0.0026844293
-0.072129875 -0.08014093 -0.044390067 0.06773749 -0.056322694 -0.14798275 -0.13131244 0.19633311
00000000: abc2 b8bd 45ac cdbd c229 26be ece8 1ebe
00000010: e060 49be 7a3c b9bd 7da3 b7bd 50fb a1bd
00000020: 1095 a63d db10 ecbd 3cf2 493e 2dd6 fbbd
00000030: 1703 21be 0a84 123e 7c51 823d c45b eebd
00000040: 0012 8e3d 48a2 2abe f032 80bd aa2e 223e
00000050: a023 20bd b073 193d 80a1 8b3c 7234 07be
00000060: e8f5 1c3e fbe3 b2bd 2a78 22be 30e3 993d
00000070: 7033 1e3c a60a 08be fc79 44bd 1a59 3a3e
00000080: 4878 08be 00ba 873a 18ca 483e 1c56 2d3e
00000090: 377e 1dbe 0498 873d 3e61 f1bd ecc1 e03d
000000a0: 024d 2cbe 68da 0d3d 9606 87bd 725b 2e3e
000000b0: b4b4 b83d a43a 22be d4b9 0a3e 84cf 45be
000000c0: a0b1 32bc c451 083e 7ec4 233e 2c57 b7bd
000000d0: 25d3 4abe bc9a c33d dcbf e73d d458 03be
000000e0: 8ed8 4ebe e0f0 893b a69d 1c3e 8066 b23b
000000f0: 98d4 49bd bcd3 d63d 482f c9bd 6c2c 62bd
00000100: 0e13 0fbe 2cd7 d6bd 81fa a2bd e47d 0b3e
00000110: 2620 143e 0839 be3c 92be 353e 109c fcbd
00000120: 64e8 2cbe 5045 19bd 00e0 0cbe 689c 1abe
00000130: b25f adbd b808 83bd a0b2 163e f038 693d
00000140: 2885 c23c 8076 933a 2c39 4f3e 606f 413d
00000150: 1c62 0a3e 1691 413e 30f4 223d 40a2 a1bc
00000160: f879 08be 9b66 06be 44a7 a9bd 0c38 41bd
00000170: fc60 873d 28f2 a03c 422c 153e 6294 3cbe
00000180: aee9 0abe fdb0 04be 68d7 a0bc 3ad6 4c3e
00000190: 3033 503e c051 ea3d c05b ef3d 2471 813d
000001a0: 3887 0c3d 98ed a73d 326a d6bd 5cd5 093e
000001b0: e207 44be 318d 38be c898 b83d 4c72 3d3e
000001c0: 7a03 183e e85c 2f3e 8966 a4bd 94d1 473e
000001d0: a4b2 07be e018 6e3c bc53 9fbd 7540 4bbe
000001e0: f4bd 253d c84a e63c 3c92 04be 80e6 363b
000001f0: 0183 d8bd 7cc7 1cbd d8dd e63c 0093 d23d
00000200: 0664 b1bd 3c4e 243e 3818 0f3e cca4 9c3d
00000210: b41e 4cbe 30f5 7dbd ce52 41be 229e 88bd
00000220: 762f 96bd 14d1 83bd b863 e73d a4cc 243d
00000230: ece1 123e f973 43be a450 40be 7863 75bd
00000240: 3078 4c3e 80ce c3bd c082 ea3b 0056 f9bb
00000250: a054 78bd d8c1 c93d f61d 473e d295 443e
00000260: 5883 e53d ac32 863d 08d7 91bd 1a9d 433e
00000270: 2ef1 263e b44f 163d 41c6 4ebe e83d 02be
00000280: d912 e2bd ecda 4e3e 4881 e8bc 8836 fdbc
00000290: dafd 043e 30ee b13c 6487 2d3d 3443 313e
000002a0: f8ff 1c3e 046d 84bd 6f5c d0bd 9640 1ebe
000002b0: 16d8 3bbe b052 39be 5815 b03c e8f1 fe3c
000002c0: 5e03 3dbe 007a 533c 7442 f53d 9c1b 213e
000002d0: 8c44 edbd a44a 64bd 348c 403e 4cb1 263e
000002e0: 3467 8c3d 5216 2a3e 48e3 66bd f085 6cbd
000002f0: 6b44 f3bd 8551 21be b042 0abe 60ab e63d
00000300: a49d 903d a8dc 5bbd 19c0 45be b894 893d
00000310: 48ac cb3d 400b ebbc 4c70 833d 08a2 503e
00000320: e08b 493c 9330 47be 40b3 633c ea50 243e
00000330: b733 0fbe a36e 4abe 069c 08be 80ea 4bbd
00000340: e6a8 0a3e 58f2 48bd 8c6d 963d 8360 34be
00000350: 7064 28bd 5470 323d 0094 163b bf2a d4bd
00000360: 1287 33be f8e3 2e3e 6556 a4bd 9010 e13d
00000370: b50e 41be 58cf 0f3e 1cfc 3d3e 3071 25bd
00000380: 90fe 653d b9b4 48be 3c1a 48bd 3879 143d
00000390: 18a7 b33d 6841 1d3e 747b 203e b4ed 91bd
000003a0: a2f0 35be 30c6 0c3e 2096 633c 1475 21be
000003b0: 7c24 8f3d f02e 2e3c fa7d e7bd c647 3e3e
000003c0: b980 47be 58e5 c9bd 8a74 193e 149d 1abe
000003d0: 1212 29be e27d 453e e5b1 b7bd 40ed 2fbb
000003e0: d4b8 93bd ee20 a4bd 5cd2 35bd f4b9 8a3d
000003f0: a0b2 66bd ca88 17be c576 06be 8c0b 493e

fc2.bias f4 [24]
-0.025562316 0.14874491 -0.19342168 -0.096955374 -0.05765198 0.16644856 -0.12603134 -0.011941329
-0.02483508 -0.11102401 -0.15421233 0.112691164 -0.086387485 -0.04893519 0.1657471 -0.17689003
0.100922406 -0.1002915 -0.18539318 -0.101429336 -0.024315506 0.06323087 0.07289186 0.028935209
00000000: 1068 d1bc 9650 183e 5510 46be 8a90 c6bd
00000010: 7c24 6cbd 7e71 2a3e 5c0e 01be 90a5 43bc
00000020: f072 cbbc 8e60 e3bd d6e9 1dbe a0ca e63d
00000030: eceb b0bd 4470 48bd 9cb9 293e a922 35be
00000040: 68b0 ce3d a165 cdbd b6d7 3dbe 2fba cfbd
00000050: 5031 c7bc 307f 813d 5448 953d 8809 ed3c

fc3.weight f4 [10, 24]
-0.14411566 0.20234397 0.19242898 0.18538293 0.09083918 0.1623407 0.15917224 -0.009809896
-0.05868967 -0.13988377 -0.07235305 0.19337076 -0.030018657 -0.19517587 -0.042176664 0.060530514
0.02742523 -0.008674532 0.103071004 -0.04575558 0.17790711 0.19405869 0.15314919 -0.050881237
0.1811041 0.10161039 -0.1931753 0.093756765 -0.14648552 0.058379352 -0.19720154 -0.12733835
-0.17502709 0.19609916 0.029297844 0.029705405 0.025348008 0.15159905 -0.02827391 -0.08140238
0.1460002 0.10055271 -0.056806743 -0.15483141 0.14391446 -0.023278326 -0.19092104 0.16068384
-0.07537986 0.107637525 0.0015222728 -0.16139527 -0.04450068 -0.16136251 0.06375748 0.17685655
0.15865871 0.08808303 -0.16049074 -0.020617485 0.0032535046 0.018541902 0.12041938 0.105722696
0.1581752 -0.088576086 -0.15477122 0.10763699 -0.11975815 -0.07120323 0.049494922 0.08639392
-0.1128386 0.20349085 -0.08624265 0.022461906 0.030200452 -0.062030092 -0.20294134 -0.11842611
-0.1941826 0.19363174 -0.13493219 -0.04439108 0.041736767 0.099389076 -0.1549047 0.13781366
0.053593367 0.009729117 -0.0717662 0.12284914 -0.010387406 -0.15415442 -0.08068724 0.12399742
-0.058697477 0.06355587 -0.028214738 0.019832268 0.20091987 -0.13534416 -0.10122683 -0.11777991
0.16848898 -0.19512573 -0.095135204 -0.1823201 0.15555626 -0.0011319518 -0.10808014 0.03804186
0.16777304 -0.12247474 -0.057217732 0.14826414 -0.13456155 -0.06152472 -0.1481888 0.03574793
0.067460775 0.14851156 0.00036118925 0.15650752 0.109440506 -0.13886335 0.09826261 -0.007831499
-0.1393311 0.086358994 -0.2012281 -0.14963503 0.095998764 0.17993823 -0.159875 -0.012463495
-0.07171887 0.124356925 -0.11183665 0.012042627 0.014385909 -0.12091591 0.1374478 0.111566156
-0.027504757 -0.035660073 0.12294757 0.13326198 0.13820145 0.16276413 -0.13052702 0.0016448498
-0.037862703 0.09192568 0.1407944 -0.046927243 0.109131485 -0.063176185 -0.16535515 0.098861486
-0.11603997 -0.062155172 -0.07865167 0.14300475 0.12963447 -0.0241535 -0.044443384 -0.06154196
-0.18378699 0.06998667 -0.059742138 0.16879234 -0.042751446 0.1825797 0.14332151 0.17736298
0.14377156 -0.015584052 0.17431232 -0.11589679 0.070551634 0.20096031 -0.05462514 -0.19494426
0.16268241 -0.1131072 -0.1833824 -0.18581925 0.08869499 0.16922885 0.14442754 0.049229234
0.06733814 0.0023587197 0.022983491 -0.18620256 -0.1950813 0.056034386 0.118439674 0.17350277
-0.094507135 0.16444099 -0.19870515 -0.07293591 -0.060886756 0.03811261 -0.026232675 -0.10064336
-0.19996247 -0.091189384 -0.15002768 -0.1563585 -0.15649535 0.162857 -0.12363068 -0.007278666
0.0028963238 -0.17712769 0.041738957 0.16064206 -0.16017969 -0.14752394 -0.07647076 -0.0030302256
-0.06368366 0.1738069 -0.088403225 -0.20047028 -0.13385311 -0.16997375 0.10242295 -0.14291137
-0.07136357 0.07932669 -0.15475692 -0.055360094 -0.20010982 0.10352269 0.10898161 -0.13429792
00000000: 0e93 13be 4233 4f3e 1a0c 453e 06d5 3d3e
00000010: e409 ba3d a43c 263e 0cfe 223e b0b9 20bc
00000020: 9464 70bd b13d 0fbe d62d 94bd fc02 463e
00000030: b0e9 f5bc 2fdc 47be 70c1 2cbd d8ee 773d
00000040: e0aa e03c a01f 0ebc e416 d33d 346a 3bbd
00000050: 482d 363e 52b7 463e 24d3 1c3e d868 50bd
00000060: 5a73 393e 1c19 d03d bfcf 45be 8c03 c03d
00000070: 4d00 16be 301f 6f3d 33ef 49be fc64 02be
00000080: 4d3a 33be 38ce 483e 0802 f03c c058 f33c
00000090: a0a6 cf3c c83c 1b3e b09e e7bc 4ab6 a6bd
000000a0: 1481 153e 94ee cd3d 30ae 68bd 208c 1ebe
000000b0: 505e 133e 30b2 bebc ce80 43be 4e8a 243e
000000c0: c260 9abd 1071 dc3d 0087 c73a cd44 25be
000000d0: 5846 36bd 373c 25be 4893 823d e219 353e
000000e0: 6e77 223e e064 b43d af57 24be 00e6 a8bc
000000f0: c038 553b 30e5 973c 709e f63d 2485 d83d
00000100: aef8 213e 6167 b5bd 597c 1ebe c870 dc3d
00000110: c343 f5bd 00d3 91bd 30bb 4a3d 4cef b03d
00000120: ed17 e7bd e85f 503e fd9f b0bd 0802 b83c
00000130: f066 f73c 4413 7ebd dbcf 4fbe 6389 f2bd
00000140: ced7 46be 6647 463e aa2b 0abe 6cd3 35bd
00000150: 2cf4 2a3d 808c cb3d 569f 1ebe 061f 0d3e
00000160: b884 5b3d e066 1f3c 28fa 92bd 5498 fb3d
00000170: f02f 2abc a8da 1dbe 5a3f a5bd 5cf2 fd3d
00000180: c46c 70bd 9429 823d 9822 e7bc 4877 a23c
00000190: f0bd 4d3e a997 0abe 0350 cfbd 9836 f1bd
000001a0: 6088 2c3e 0acf 47be 3fd6 c2bd 1fb2 3abe
000001b0: 244a 1f3e 005e 94ba 1f59 ddbd c8d1 1b3d
000001c0: b2cc 2b3e 09d4 fabd 245d 6abd 8ed2 173e
000001d0: 81ca 09be 5801 7cbd cebe 17be 6c6c 123d
000001e0: e028 8a3d 6a13 183e 005e bd39 8243 203e
000001f0: 5822 e03d 3232 0ebe e83d c93d b04f 00bc
00000200: d0ac 0ebe fcdc b03d bd0e 4ebe ed39 19be
00000210: 009b c43d ba41 383e 46b6 23be b033 4cbc
00000220: 58e1 92bd d8ae fe3d 9d0a e5bd 704e 453c
00000230: e0b2 6b3c c3a2 f7bd 1ebf 0c3e cc7c e43d
00000240: a851 e1bc 4c10 12bd f0cb fb3d d475 083e
00000250: ae84 0d3e a4ab 263e e0a8 05be 0098 d73a
00000260: ec15 1bbd 8843 bc3d 682c 103e c836 40bd
00000270: 5480 df3d 8462 81bd dc52 29be e477 ca3d
00000280: 5da6 edbd 6c96 7ebd 2014 a1bd d66f 123e
00000290: e6be 043e 90dd c5bc 440a 36bd 6c13 7cbd
000002a0: a832 3cbe 2c55 8f3d 2cb4 74bd e6d7 2c3e
000002b0: 241c 2fbd 2cf6 3a3e e0c2 123e a49e 353e
000002c0: da38 133e 4054 7fbc ee7e 323e 4c5b edbd
000002d0: 607d 903d 8ac8 4d3e 9cbe 5fbd 789f 47be
000002e0: 3896 263e bfa4 e7bd 99c8 3bbe 6747 3ebe
000002f0: b8a5 b53d 544a 2d3e d0e4 133e 98a4 493d
00000300: 94e8 893d c094 1a3b e047 bc3c e2ab 3ebe
00000310: 64c3 47be 5084 653d 8090 f23d b6aa 313e
00000320: f58c c1bd 3863 283e 5d79 4bbe 6c5f 95bd
00000330: 6464 79bd f81b 1c3d e8e5 d6bc 1b1e cebd
00000340: f6c2 4cbe 80c1 babd dba0 19be 711c 20be
00000350: 5140 20be fcc3 263e 1532 fdbd e081 eebb
00000360: 40d0 3d3b f660 35be 78f6 2a3d 5a7f 243e
00000370: 2506 24be 8410 17be b49c 9cbd c096 46bb
00000380: 946c 82bd 70fa 313e c00c b5bd 1548 4dbe
00000390: ca10 09be 990d 2ebe 20c3 d13d 5c57 12be
000003a0: 1027 92bd 0876 a23d 9978 1ebe 44c1 62bd
000003b0: 97e9 4cbe b403 d43d c031 df3d 6585 09be

fc3.bias f4 [10]
-0.040483445 0.08797535 0.11881915 0.07861942 0.0641284 0.11098632 0.11042172 -0.08510248
0.108805776 -0.19829904
00000000: f8d1 25bd 6c2c b43d 7457 f33d 3803 a13d
00000010: c055 833d cc4c e33d c824 e23d 364a aebd
00000020: 90d5 de3d e70e 4bbe
