models/saved_models/dqn_model.pth (onnx, 27655 bytes, 6 tensors)

fc1.weight f4 [24, 50]
000000 9c 1a 0b be 92 82 ea 3a 28 d1 9a bc 8f 86 45 ba
       -0.1358437 0.0017891696 -0.018898562 -0.00075350044
000010 1c 2c aa bd c1 7b 75 bc b2 30 31 bd 67 81 c9 bd
       -0.083091944 -0.0149831185 -0.04325933 -0.09839135
000020 a1 85 81 be 7a bc 94 bd 7c cc 6d 3d a6 8e 78 bd
       -0.25297263 -0.072625116 0.05805634 -0.060682915
000030 f2 96 a8 bd 08 0a cc bd 0a 71 d0 bd 64 bf 00 3d
       -0.082319155 -0.09962851 -0.101778105 0.031432524
000040 f3 b8 9b bd 52 d7 08 be 40 6a 56 bc 80 be 2a bb
       -0.07603636 -0.13363388 -0.013086855 -0.0026053488
000050 a9 8f ec bd 6e c9 b7 3d 18 3c a5 bd ae 2b ec 3d
       -0.115508385 0.089739665 -0.080681026 0.11531769
000060 e0 08 d1 3c 4a da ea bd d8 48 a0 3d d6 4f ea 3d
       0.025516927 -0.114674166 0.07826394 0.11441009
000070 98 47 08 3d ce 88 ac 3d 64 92 75 3d 7b 7b cc bd
       0.033271402 0.08424531 0.059954062 -0.099844895
000080 34 1f 0a be 20 e9 16 bc a8 f9 27 bd e4 95 1c 3d
       -0.13488466 -0.009210855 -0.041009575 0.038228884
000090 24 6a 55 3d 1a 66 f7 3d c0 02 49 bc 18 1a b8 3d
       0.052103177 0.12080021 -0.012268722 0.08989352
0000a0 c0 5e 9d 3b cf 0f e9 bd 7b b1 fd bd 99 3d 0b be
       0.004802555 -0.113799684 -0.12387367 -0.13597716
0000b0 60 8b c1 3b 2b 79 88 bd dc 2a d0 bd c4 51 24 3d
       0.0059065074 -0.06663736 -0.10164425 0.04011704
0000c0 40 5b 1c 3d 76 56 c4 bd e9 d3 05 bc 4e bd e2 be
       0.03817296 -0.095868036 -0.008168199 -0.44285053
0000d0 ec 51 c0 be 93 3b 2c 3d 4b 7b d4 be 58 b2 4c bf
       -0.375625 0.042049002 -0.41500315 -0.7995963
0000e0 82 db b5 be f9 f4 96 be 79 5c bb bd 15 43 1a be
       -0.35519034 -0.29483774 -0.09148497 -0.15064652
0000f0 41 bd 03 3e f2 7a c8 bd 5c 2f 14 bd 1c ad c3 bd
       0.12865163 -0.09789075 -0.036177978 -0.09554502
000100 06 45 f0 3d f6 9e e1 3d 67 3e b7 bd a8 52 c5 3c
       0.11731915 0.110166475 -0.08947449 0.024087265
000110 55 f3 00 3e 70 8e 36 bd de 36 fc bd f0 3a 30 3d
       0.12592824 -0.044569433 -0.123151526 0.043024957
000120 00 69 dc ba 3d 95 02 be 32 ae ad bd d0 bf c6 3d
       -0.001681596 -0.12752242 -0.08480491 0.09704554
000130 94 f1 4a 3d 0b e5 03 3e 88 5e 2b 3d 3c 56 fc bc
       0.049546793 0.12880342 0.0418382 -0.030802839
000140 56 5d e7 bd a9 04 0e be dc e6 ad bd 46 f0 b1 3d
       -0.11297099 -0.13868965 -0.084912986 0.08688407
000150 84 77 90 bd 14 7d 29 3d a6 74 e2 3d f4 cf 0c 3d
       -0.07054046 0.04137905 0.11057405 0.034378007
000160 f3 36 86 bd c8 64 61 3d 24 fc ac 3d 50 b0 79 3c
       -0.065534495 0.055027753 0.084465295 0.01523979
000170 0c 61 4a bd 20 ea 78 bc 0a c9 71 bd d4 9b d1 3d
       -0.049408957 -0.0151925385 -0.059029616 0.102348
000180 74 8a 16 bd e0 78 0a bd 80 1d 61 3c 00 fa a0 ba
       -0.036753133 -0.03380668 0.0137399435 -0.0012281537
000190 3e d1 7a be e0 ac 8b be 93 f9 e3 bc 81 1f 39 bf
       -0.24493882 -0.2728033 -0.027828967 -0.72313696
0001a0 2d 03 aa bd 39 8c 7c bf 4d f2 a0 bf 89 c0 b6 be
       -0.08301387 -0.9865146 -1.2573944 -0.35693768
0001b0 22 70 5a bf 1e dd 15 bf e0 95 d0 3c be 62 86 bd
       -0.8532735 -0.58540523 0.025462091 -0.06561802
0001c0 cc 18 a8 3d d4 99 22 3d be 56 db 3d f1 dc 01 3e
       0.08207855 0.039697483 0.10709904 0.12681939
0001d0 ec 93 cd 3d 59 32 9e bd fa a8 99 3d 58 7c 5e bd
       0.100379795 -0.07724447 0.07502933 -0.054317802
0001e0 f0 b0 f5 3c 00 3e f2 39 70 2b db bc 12 27 e9 3d
       0.029991597 0.0004620403 -0.026754111 0.11384405
0001f0 36 0f 24 bd 50 cb 4f 3d e0 38 55 3c f0 67 61 3c
       -0.04005357 0.050731003 0.013014048 0.013757691
000200 9e 5c ff bd c8 05 0a 3d d4 9f 28 3d 75 3a 09 be
       -0.12468837 0.03369692 0.04116805 -0.13401206
000210 2b e5 f3 bd d0 8e bb 3d 8c 22 f7 bc 30 10 d7 3d
       -0.11908945 0.09158099 -0.03016784 0.105011344
000220 00 86 1b 3b ec 1d 72 3d bc 2d c9 bd 0f b6 86 bd
       0.0023730993 0.059110567 -0.09823176 -0.06577694
000230 34 37 99 3d 1e 5f 9e bd d0 1d d0 3c a2 cb dc 3d
       0.07481232 -0.07732986 0.02540484 0.107810274
000240 16 68 dc 3d 00 54 be 3c 64 ce d0 3d d8 81 0b be
       0.1076204 0.023233414 0.10195616 -0.1362375
000250 ee 7c ac 3d 40 ac 14 3c 05 6b a9 bc 58 df c1 bd
       0.08422266 0.009074271 -0.020680914 -0.094664276
000260 c8 b6 2d be 66 85 c2 bd b2 82 f2 bc 03 86 a4 bc
       -0.16964257 -0.094981 -0.029603336 -0.020083433
000270 6c 0d 07 3b 7a ee d1 39 49 5f eb bd 98 68 9f bd
       0.0020607365 0.00040041265 -0.114927836 -0.077836215
000280 e6 3a f8 3d ee 73 75 bd 64 05 84 3d 2e bb 60 bd
       0.12120609 -0.059925012 0.06446341 -0.05486601
000290 6c d7 39 bd 50 74 81 3d 94 72 57 3d 48 1c 65 3d
       -0.045371458 0.06321013 0.052599505 0.055935174
0002a0 49 b2 0d 3e 40 69 5c bd 93 77 f5 bd a0 c2 55 bc
       0.13837542 -0.05381131 -0.119856976 -0.0130468905
0002b0 fe 20 dd bd 80 26 65 3b 6e 91 a7 bd 2c 7d a4 bc
       -0.107973084 0.0034965575 -0.081820354 -0.020079218
0002c0 b2 c5 9c 3d 34 21 d4 3d a0 c0 31 bd 31 cb c8 bd
       0.07654895 0.103578955 -0.043396592 -0.09804381
0002d0 20 34 18 3c c6 de 8c 3d 80 54 7d bb 59 94 0b be
       0.009289771 0.06878428 -0.0038655102 -0.13630809
0002e0 20 c0 d5 bb 41 34 a5 bd ed 2f ed bd d8 d4 cb bd
       -0.006523147 -0.08066607 -0.11581407 -0.09952706
0002f0 dc 5b ef bc b2 3e 0f be f8 13 06 bd 66 3f fc 3d
       -0.029218607 -0.1398876 -0.032733887 0.1231678
000300 50 64 1b bd 8e 80 81 3d 00 f1 22 ba 80 f1 b6 ba
       -0.037937462 0.06323348 -0.00062157214 -0.0013957471
000310 f0 f0 80 3c 20 f1 9f 3d 00 9f 01 3b 5c 18 08 3d
       0.015739888 0.07809663 0.001977861 0.033226356
000320 11 ed b8 3c 40 4f bb be 15 80 61 bf 5b 39 36 3e
       0.02257398 -0.365839 -0.8808606 0.17795317
000330 99 9b 97 bf 61 5f 6d bd 4c 5b 35 bf a4 ee 65 be
       -1.184436 -0.05795229 -0.7084243 -0.22454315
000340 3d 89 27 3d 20 1a 74 bf 80 4b 33 3d a0 93 89 3b
       0.040902365 -0.95352364 0.043773174 0.0041985065
000350 02 cb bd 3d 7e 6b 4e bd 34 d4 b0 3d 28 f5 56 bd
       0.09267236 -0.05039548 0.086342245 -0.052479893
000360 ee 80 9c bd a6 da 8e 3d c0 06 23 bb b8 f6 28 3d
       -0.07641779 0.06975298 -0.002487585 0.041250914
000370 9c f6 9e 3d c0 c7 79 3d 54 84 95 bc 6c 36 c1 bd
       0.07761881 0.060981512 -0.018251576 -0.09434208
000380 f0 83 7f bd 13 93 90 bd a0 1c 2e bc 02 bd db bd
       -0.062381685 -0.07059302 -0.010626942 -0.1072941
000390 dc 5d 02 be 2e a4 9e 3d 32 a5 18 bd ba 04 b7 3d
       -0.12731117 0.077461585 -0.037266918 0.089364484
0003a0 cc 32 11 3d 94 d7 78 3d 83 0c 0d 3e 69 3a df bd
       0.035448834 0.060752466 0.13774304 -0.10899813
0003b0 b6 28 9d 3d c4 af 9d bc f0 d1 51 3c e8 8e f1 3c
       0.076737806 -0.01924885 0.012806401 0.029487088
0003c0 ae 7c eb 3d 6a 1b 4a bd a0 8e e5 bb f0 68 16 bc
       0.1149839 -0.04934255 -0.0070055276 -0.0091802925
0003d0 27 17 fe bd 40 6d 5f 3d 06 ff f0 3d 66 21 09 bd
       -0.1240676 0.05454755 0.11767392 -0.033479117
0003e0 d6 de f2 3d 6a a7 eb 3d 72 cd 1f be 52 17 93 3e
       0.11858909 0.11506541 -0.15605715 0.2872873
0003f0 10 b5 c3 3e bd b6 31 3f b5 9c d0 bf 43 c1 58 bf
       0.38224077 0.6941946 -1.6297823 -0.84669894

fc1.bias f4 [24]
000000 11 78 ae be b5 05 b3 bf fa 77 1e 40 6a 0e a6 be
       -0.34075978 -1.3986117 2.4760728 -0.32432872
000010 52 f9 30 40 f5 1c 2d 40 79 38 5a c0 4b fe ac c0
       2.7652173 2.7048924 -3.4096968 -5.4060416
000020 ce 38 84 be 83 8d be bd b3 5d 91 3f 55 01 d3 be
       -0.2582459 -0.09304335 1.135672 -0.41211954
000030 2b 64 84 3f 31 ad 89 bd 01 a4 37 3f 8b 9f 09 40
       1.0343069 -0.06722487 0.71734625 2.1503627
000040 39 9c a2 be c5 ed 52 be 86 8a f6 3f 23 2e 59 40
       -0.31759813 -0.20598514 1.9261024 3.393441
000050 f5 0c 11 40 15 d6 aa be 62 4d a1 40 2d 4c a8 be
       2.2664158 -0.33366457 5.040696 -0.32870618

fc2.weight f4 [24, 24]
000000 60 26 c1 3d ed 14 11 bf 45 0b d4 be c3 46 e7 bd
       0.094311476 -0.56672555 -0.41414848 -0.112927936
000010 bf 27 e0 be ed de 3a 3e 65 ac e1 be 1e d7 2a be
       -0.43780324 0.18249102 -0.4407684 -0.16683623
000020 6c ec 08 bd 90 c3 2c 3c 43 b8 16 bf 74 7e 60 be
       -0.033428594 0.010544673 -0.5887491 -0.21923238
000030 24 44 b2 3c e0 ea f2 3d 4f ec f1 be d5 52 87 bd
       0.021761008 0.11861205 -0.47250602 -0.06607596
000040 26 f9 40 be d3 5a 0a be 0c 5b 34 bf 18 bb 8d bd
       -0.18845043 -0.13511209 -0.70451427 -0.06920451
000050 57 7d 73 3e 60 25 3d be bd 0a 21 3e c7 99 90 39
       0.23778282 -0.18471289 0.15726753 0.00027580393
000060 77 9e f9 bd 67 a9 22 3e 08 d3 59 bf 0c bc 1c 3d
       -0.12188428 0.15884934 -0.85087633 0.038265273
000070 f5 89 55 be 2d c5 b2 be 5f 9d 80 be 1b 23 81 bd
       -0.20853408 -0.34916058 -0.25120065 -0.06305524
000080 31 1a cb 3b 4a fc 64 bd 2c 88 d0 3c 82 93 83 bc
       0.0061981906 -0.055904664 0.025455557 -0.016061548
000090 90 82 92 be dc e0 11 be 32 a4 43 be 39 4f e6 be
       -0.28615236 -0.14245933 -0.19105604 -0.44982317
0000a0 87 f5 2a be f7 1f fd 3b f1 85 a3 3e bb 0d 43 be
       -0.16695224 0.007724758 0.31938127 -0.19048207
0000b0 38 74 4e bf 7b 98 88 3d 91 4f c3 be a6 ee 37 bb
       -0.80646086 0.06669708 -0.38146642 -0.002806583
0000c0 35 07 17 3d 49 38 08 bf 24 df f7 be 9c 69 70 bd
       0.036872108 -0.53210884 -0.4841243 -0.058694467
0000d0 20 a1 89 be 47 79 0c bf 57 1f 2d bf 9f 8c 06 bc
       -0.2688074 -0.54872555 -0.67625946 -0.008212238
0000e0 9f 49 ad bd 70 06 49 bc b2 14 f2 be f1 87 60 bd
       -0.08461308 -0.012269601 -0.47281414 -0.054817144
0000f0 e1 d3 80 be d2 bc 35 3c 59 ac a6 bd 40 bc be be
       -0.2516165 0.011092382 -0.081383415 -0.37252998
000100 cd ac b3 be 07 be 79 bd 72 62 48 be fa c2 4c be
       -0.35092774 -0.06097224 -0.19568804 -0.19996253
000110 41 67 61 bc 8f ad 89 3d bb 3e 0e 3d c0 e2 1d be
       -0.013757528 0.06722557 0.034727793 -0.1541853
000120 cc 6f 70 bd 19 1d 84 bd b5 50 e9 3d bb 7d b4 bd
       -0.058700368 -0.064508624 0.11392347 -0.08813044
000130 10 14 8f 3e 51 53 ec 3e c7 ac 96 3e b9 7d 2c 3e
       0.27944994 0.46157315 0.29428694 0.16844834
000140 b0 ae e4 bc c4 56 5f 3e ee ef 4e be e9 57 a2 bc
       -0.027915329 0.21810442 -0.20208713 -0.01981731
000150 6e 8e 40 3d 48 8a 12 be 98 67 af be 44 b7 c7 3d
       0.04701083 -0.14310563 -0.34258723 0.09751752
000160 2c 86 b8 be 0c f5 10 3e 0d 42 3b 3e 04 66 0b 3e
       -0.36039865 0.14155978 0.18286915 0.13613135
000170 9e 00 d5 be f3 da 8b bd 0e dd 4d 3e 85 25 e9 bd
       -0.41602033 -0.068288706 0.20103857 -0.113841094
000180 63 32 09 be 1e 1e 87 3d 48 72 13 bf be 53 9b 3d
       -0.13398127 0.06597541 -0.57596254 0.07584332
000190 74 1f 23 be 1b 71 6b be 86 f7 08 be 44 0a fe b9
       -0.15929967 -0.22992365 -0.13375673 -0.00048454304
0001a0 fd 31 da bc 84 e5 b9 bd a1 4c 33 bf f4 4d b7 bd
       -0.026635164 -0.0907698 -0.700388 -0.08950415
0001b0 83 47 e8 3d 46 06 b0 3d df b6 1c bd de bb f0 bc
       0.11341765 0.085949466 -0.038260337 -0.029386457
0001c0 f9 e7 96 bd 41 e8 34 3e 5c 85 9c 3e 1f a6 11 be
       -0.07368464 0.17666723 0.30570495 -0.14223526
0001d0 24 4c b1 be 16 e8 24 3d 0d 18 6f bd b8 07 36 3d
       -0.34628403 0.040260397 -0.058372546 0.044440955
0001e0 d7 73 23 3e 6b 44 97 3e b9 55 0d bf 62 18 ab bd
       0.15962158 0.29544386 -0.5520893 -0.0835426
0001f0 63 d7 d0 be f6 1e fd be 58 4d 86 be 20 b5 e2 bd
       -0.40789327 -0.49437684 -0.26230884 -0.11069703
000200 ea 91 71 3d 9f f3 8d bd e1 a9 3e bf 2d 96 af bd
       0.058977045 -0.06931233 -0.74477965 -0.08573566
000210 c0 73 70 be fb 0d 5e be cf 44 b5 be 97 a6 36 bf
       -0.23481655 -0.2168502 -0.3540406 -0.71347946
000220 5f c3 f5 be 18 23 e9 bd 16 87 a7 be ad 0a 8c bd
       -0.4800062 -0.11383647 -0.3272025 -0.06837974
000230 57 4e 31 be 6c fe 18 be ad 7e ab bd 3e d0 9b 3b
       -0.1731504 -0.14940804 -0.08373771 0.004755049
000240 44 03 41 be ae 11 95 3d d1 f6 08 bd 99 73 e2 bc
       -0.18848902 0.07278763 -0.033438507 -0.027643012
000250 ae 0b 2a 3e ac 81 c2 be ab b0 27 3e 96 e1 98 be
       0.16606018 -0.37989557 0.16375987 -0.29859608
000260 6c 9e 32 be ec e1 31 3d f6 e1 58 3e 99 1f ce bd
       -0.17443246 0.043428347 0.21179947 -0.100646205
000270 4c 40 5a be a8 c7 b7 3d da 75 84 be 10 63 c9 3c
       -0.2131359 0.08973628 -0.25871164 0.02458337
000280 a0 cf 8e be de 4c 49 3e 8e 8d d5 3d 5a 14 7f be
       -0.2789278 0.19658229 0.1042739 -0.24910107
000290 f7 dc d5 bd f9 41 1f 3e b4 0e 36 be d2 b7 54 be
       -0.10442536 0.1555251 -0.17779046 -0.20773247
0002a0 0a b3 2c be 0f 68 b9 be 5f 77 bf 3d f7 8a e7 3d
       -0.16865173 -0.36212203 0.0934894 0.11305802
0002b0 4c d7 10 bf 57 e3 85 3d 53 0a 63 3e 3d 26 9b bd
       -0.56578517 0.06537502 0.22171907 -0.07575653
0002c0 54 0d 2e 3d 31 ce 84 bd 30 21 84 be 02 16 45 bd
       0.04249318 -0.064846404 -0.2580657 -0.04811669
0002d0 20 9d 77 3e ff 67 ee bc 40 2e 3f 3e 9e 0a e7 be
       0.24181032 -0.029102324 0.18669987 -0.45125288
0002e0 2a e2 2f bd d2 d6 4c be 2a 93 22 3f f0 01 97 be
       -0.042940296 -0.20003822 0.63505805 -0.29493666
0002f0 07 19 b8 be b1 e1 2a 3e 9d c0 a1 be b7 09 f4 bd
       -0.35956594 0.16687657 -0.31592265 -0.119159155
000300 03 f2 1c be 85 15 fe bb 27 aa 5c be a5 31 6e b9
       -0.15326695 -0.00775403 -0.21549283 -0.00022715943
000310 e2 24 d7 bd f3 b9 92 be 98 97 33 be 9a 5d c7 bd
       -0.10505082 -0.28657493 -0.17538297 -0.0973465
000320 38 e7 08 3d 88 e9 ff 3c f8 1d d1 3d d5 b0 1d be
       0.033423632 0.031239286 0.10210794 -0.15399487
000330 2e 89 4b be 68 bb c6 3d ef a4 33 3d dc ef a3 be
       -0.19876549 0.09703714 0.043858465 -0.32018936
000340 dd c6 9e bc c0 76 52 3d ff 8e d4 3c be b5 25 be
       -0.019381935 0.05138278 0.025947092 -0.1618261
000350 e8 d9 9f 3d 2d a9 81 3d 1a f7 90 bd 7d 1c 1d be
       0.07805234 0.06331096 -0.07078381 -0.15342899
000360 7a 30 ea bc b2 08 92 3d 75 16 6f bd 6d 3a 24 be
       -0.028587569 0.07130565 -0.058371026 -0.16037913
000370 e0 02 9a be 5d a1 35 be ec b1 9f 3d e8 04 9f 3d
       -0.30080318 -0.17737336 0.07797608 0.07764608
000380 9f 25 33 3e 45 7a 8f 3d ac 85 ce be 7e a4 10 3d
       0.1749482 0.07005743 -0.4033636 0.035313122
000390 a6 44 d8 bc cf 06 1b 3e 0a 04 2b be fe 69 e3 be
       -0.026399922 0.15139316 -0.1670076 -0.44416803
0003a0 2b 51 9d 3a 71 47 73 3d a1 f0 2d bf 21 d2 66 bf
       0.0012002339 0.059394304 -0.67945296 -0.9016438
0003b0 25 97 b2 be 16 89 94 bd 43 4c ff be a4 88 00 bd
       -0.3488094 -0.072527096 -0.4986287 -0.03138031
0003c0 2a ce 8b bd e2 b8 a1 3d 2b 6e 91 3a 4f 8c 26 be
       -0.06826432 0.07896592 0.0011095455 -0.16264461
0003d0 78 d0 f7 3d 79 81 ca bd 95 9c fe 3c 97 e4 b6 be
       0.12100309 -0.09887976 0.031080524 -0.35721275
0003e0 19 f4 2a bc 40 34 73 3d 8c 79 6e bd a1 c1 85 bd
       -0.010434174 0.059376 -0.058221385 -0.065310724
0003f0 4b c7 11 3e 10 d9 d5 bd 01 ac dd bd 29 b0 6f be
       0.1423618 -0.10441792 -0.10823823 -0.23407044

fc2.bias f4 [24]
000000 ee 2f b2 be 47 86 af 3f 08 fb bf bb fb c3 0a 40
       -0.34802192 1.3712853 -0.0058587827 2.1682117
000010 3b 34 1d bb fa 19 92 3f 01 a1 d3 bc 26 02 1b 3f
       -0.002398743 1.1414177 -0.025833609 0.60550153
000020 3a 02 a1 be 69 f2 0a 40 32 9f 47 be bb d8 1c be
       -0.3144701 2.1710455 -0.19494322 -0.15317051
000030 a4 fc 3e 3f ba 79 3e 40 7d cf 1e be 6a 75 0d 40
       0.7460425 2.9761796 -0.15508838 2.2102914
000040 89 15 8d be aa 2e 8a 40 39 a6 ec bd 29 59 79 3f
       -0.27555493 4.3181963 -0.11555142 0.9740167
000050 4c 93 f2 bc 21 81 b6 be 12 33 84 40 07 9f 3b 3f
       -0.029611252 -0.35645393 4.131234 0.7328953

fc3.weight f4 [10, 24]
000000 8c d1 a2 3f 64 e4 05 41 76 e4 55 40 c3 74 b3 40
       1.2720199 8.368259 3.3420691 5.608003
000010 6f df cb 3d 70 42 b8 40 76 e2 a2 3b 8e 5d d9 40
       0.09954726 5.75811 0.004970844 6.7926702
000020 a6 32 36 bc bd ff 2c 41 06 38 f3 3d 23 3e ce 3f
       -0.011120474 10.812436 0.1187592 1.6112713
000030 fd 80 a8 40 b3 7a bc 40 98 2b e5 3d 9c e5 db 40
       5.2657456 5.889978 0.111899555 6.8717785
000040 e7 62 be bc b0 1b dc 40 ba 4e 28 3d 89 09 c2 40
       -0.02324052 6.87838 0.041090705 6.063664
000050 fb 00 fd bc 05 6f 01 3e 17 29 e1 40 3e 43 c0 40
       -0.030884257 0.12640007 7.036266 6.0082083
000060 a8 1c 6f 3f 8b 42 0f 41 18 52 61 40 38 f6 bc 40
       0.934031 8.953746 3.5206356 5.905056
000070 40 a3 26 3f bd cc c2 40 06 02 68 be 56 c1 e5 40
       0.6509285 6.0874925 -0.22657022 7.1798506
000080 cb 44 4d 3d 3a be 30 41 d6 ef 19 bd 87 d0 98 3f
       0.050114434 11.046442 -0.03758224 1.1938637
000090 1d 55 bb 40 66 6d ce 40 a8 b0 db 3d d6 be da 40
       5.85414 6.4508543 0.10727054 6.8357954
0000a0 42 fe 70 3e d8 22 dc 40 48 f2 2b 3e 01 aa da 40
       0.23534492 6.8792534 0.16791642 6.8332524
0000b0 11 a9 d7 3e 80 b1 78 3e c0 66 d5 40 53 a8 bf 40
       0.42121175 0.24286461 6.6687927 5.9892974
0000c0 db 45 8d 3f e2 70 15 41 a6 7e 87 40 d6 34 a7 40
       1.1036943 9.340059 4.23421 5.2251997
0000d0 22 8e 68 3f 28 48 c6 40 e9 d1 0e bd ef 48 cd 40
       0.9084188 6.196308 -0.034868155 6.415153
0000e0 84 d6 4c be ac a6 31 41 40 a6 00 3e ad ed 9c 3f
       -0.20003706 11.103191 0.1256342 1.2260033
0000f0 da db da 40 d0 c2 c8 40 68 f3 71 3d 77 7a d9 40
       6.8393373 6.273781 0.05907002 6.7961993
000100 a4 de 0e 3e 94 93 e3 40 2e c5 fa bd d1 0e c4 40
       0.13952118 7.111765 -0.1224464 6.1268086
000110 59 e1 a3 3d 9d 31 84 3f 6c 59 d5 40 52 e8 b9 40
       0.08001966 1.0327641 6.6671658 5.8096094
000120 57 4f 16 3f 6d d4 1b 41 82 16 54 40 46 82 be 40
       0.58714813 9.739362 3.3138738 5.9534025
000130 87 16 73 3d fc 61 d1 40 bc d6 c6 3c e8 a3 cf 40
       0.059347656 6.543211 0.024272315 6.488758
000140 1f a8 80 bc c6 30 22 41 98 41 45 bd 95 56 00 40
       -0.015705166 10.136908 -0.04815826 2.0052845
000150 f7 5c bf 40 32 9f d0 40 25 c5 da 3d da dc e2 40
       5.9800982 6.519433 0.106821336 7.0894594
000160 fe e9 71 3d 1f 8b e1 40 b5 4a 99 3c 60 17 be 40
       0.059061043 7.0482326 0.01871238 5.9403534
000170 cb df 5c be 20 9b 58 3e d7 66 cc 40 17 0a c2 40
       -0.21569745 0.21152925 6.3875537 6.0637317
000180 47 34 36 3f 55 b2 14 41 64 b0 4f 40 d8 67 c0 40
       0.7117352 9.293538 3.245141 6.0126762
000190 88 fc 0f be d2 ee be 40 58 f6 42 3e 9d f2 dd 40
       -0.14061177 5.966653 0.19039285 6.935866
0001a0 b0 db a8 bc e0 e0 24 41 8d fb 1d be 06 e6 cf 3f
       -0.020612568 10.304901 -0.1542799 1.6242073
0001b0 2c d9 c3 40 9e 80 ca 40 dc e1 8a bd 58 ed de 40
       6.1202602 6.3282003 -0.067813605 6.9664726
0001c0 b0 20 97 bb db 95 e7 40 16 f2 d1 bd e8 ab ca 40
       -0.004612051 7.237043 -0.10251252 6.3334846
0001d0 b1 4e a5 3c 76 2c c4 3e 07 11 d4 40 a5 14 bf 40
       0.020179125 0.3831517 6.6270785 5.97127
0001e0 e6 17 1c 3f 95 76 0f 41 a9 12 41 40 fc d7 ad 40
       0.60973966 8.966451 3.016764 5.4326153
0001f0 b6 c5 70 3e 3e 41 b0 40 96 a9 cd bd c6 09 ad 40
       0.2351292 5.507964 -0.100421116 5.407443
000200 58 fe 29 be a7 54 1a 41 f7 ad 0c bd 15 ba de 3f
       -0.1660093 9.645667 -0.034345593 1.7400538
000210 11 1b a4 40 10 6e b7 40 ee a8 f3 b9 17 b8 bc 40
       5.128304 5.7321854 -0.00046474434 5.897472
000220 41 2a 5b bc 39 df d6 40 dc 8a 7c 3e 14 ef b3 40
       -0.013376773 6.714749 0.24662346 5.6229343
000230 59 4c 81 be 89 5d b3 3d 3d 2d bb 40 3a 69 af 40
       -0.2525356 0.08758075 5.8492723 5.481595
000240 00 94 b7 3e c0 ff 1c 41 c2 de 4e 40 2e a2 ba 40
       0.35855103 9.812439 3.232346 5.8322973
000250 54 da c6 3e 11 0d b8 40 1b 68 14 be f8 e3 cd 40
       0.38838446 5.751595 -0.14492838 6.434078
000260 e1 03 3d be 66 f1 27 41 94 58 c4 bd 8f e9 b0 3f
       -0.18458511 10.496435 -0.095872074 1.3821276
000270 8b 26 b2 40 6d 08 d0 40 74 2f b9 3d f3 1e db 40
       5.567205 6.5010285 0.09042254 6.847528
000280 72 2c e7 3b e2 f6 e3 40 56 2f fe 3d 11 01 c7 40
       0.007054859 7.123887 0.12411372 6.21888
000290 3e e7 98 3e 92 15 86 bd 25 eb cf 40 79 5a cd 40
       0.29863924 -0.06547083 6.497454 6.417294
0002a0 43 b5 b8 3e 4d 24 11 41 76 f5 2c 40 7a 61 b9 40
       0.36075792 9.0713625 2.7024817 5.793149
0002b0 50 df 52 3e b0 5d b1 40 e8 55 04 3e 50 11 c0 40
       0.20593 5.5426865 0.12923396 6.0021133
0002c0 f8 5e dc 3d 74 bb 25 41 06 f1 43 be 28 fa 12 3f
       0.10760301 10.358265 -0.19134912 0.5741296
0002d0 60 15 b6 40 09 9e d3 40 40 15 4a bb 10 7c ee 40
       5.6901093 6.6130414 -0.003083542 7.4526443
0002e0 d1 34 fc 3d 15 00 ed 40 7e ed 98 bd 37 bb ce 40
       0.123147614 7.40626 -0.07467173 6.4603534
0002f0 37 1c 32 3f c2 03 28 3e 70 20 c3 40 99 a6 b3 40
       0.695743 0.16407683 6.0977097 5.6140866
000300 da a9 81 3e 79 34 14 41 50 d9 54 40 2c 3e c8 40
       0.253249 9.262811 3.3257637 6.2575893
000310 25 9b 24 3e c1 d1 bd 40 e3 ab 8d bc 1d 72 d3 40
       0.16074808 5.9318547 -0.017293876 6.60768
000320 ed a5 0b be a7 c5 2a 41 21 aa 9a 3d 04 27 6a 3f
       -0.13637514 10.673255 0.07551981 0.91465783
000330 0f 8b c4 40 09 b7 c5 40 05 42 bf bd ce ed e6 40
       6.141975 6.178593 -0.09338764 7.216529
000340 ac 22 ef 3b 20 cc e0 40 c1 87 b5 bc b4 a9 d1 40
       0.0072978344 7.0249176 -0.02215946 6.5519657
000350 5a 38 42 3e 28 29 75 3f 9d b6 d4 40 d9 db bb 40
       0.18966809 0.95765924 6.6472917 5.870587
000360 a1 c5 4b 3e ca 23 10 41 e2 9f 0d 40 1c d9 c8 40
       0.19899608 9.008738 2.2128835 6.2765026
000370 72 a1 dc 3d 5d 94 ae 40 15 d5 ab bc 2d 13 b9 40
       0.10772981 5.4556108 -0.020975629 5.783591
000380 a8 68 db bd 00 ed 23 41 d0 68 4a be c2 6c 67 3f
       -0.10713321 10.245361 -0.19766545 0.90400326
000390 70 03 b1 40 be 5d da 40 15 8f f9 bd d1 44 e3 40
       5.5316696 6.823943 -0.12185494 7.1021504
0003a0 0b 04 a2 bc 75 ec f5 40 ad fc ab 3b e1 cd bf 40
       -0.019777318 7.6851144 0.005248627 5.9938817
0003b0 d7 e0 86 3b d8 23 dd ba 0a d5 d5 40 c5 bb ae 40
       0.0041161585 -0.0016871644 6.6822557 5.460421

fc3.bias f4 [10]
000000 10 63 41 41 96 37 2f 41 5c 75 42 41 0e fc 4c 41
       12.086685 10.951071 12.153652 12.811537
000010 ed d4 3f 41 9f c6 55 41 2f 76 7f 41 a2 a6 7a 41
       11.989484 13.3609915 15.966353 15.665682
000020 dc ea 8d 41 4d 67 8f 41
       17.739677 17.92544
